model/model_original.pt (torch, 126661 bytes, 9 tensors)

encoder.weight_ih_l0 f4 [200, 1]
00000000: ea90 eabd 3324 783d e202 a73d 9950 873c
00000010: 5f25 e23d 9e5c 983d 182a ab3d b529 cd3d
00000020: 089f 5b3d 9a12 e53d 30f0 273d d9e6 fa3d
00000030: 7e7b 753c 3ec4 ccbd b22e dfbd 37aa 853d
00000040: 3714 283d 82a6 2fbe 37fb 7f3c 1fea 003e
00000050: 855e 753d 3362 aabd 78da 513d 60c4 ecbd
00000060: 32e0 f73d 3a91 f63d f14d b63d 67a8 c5bd
00000070: e20b 3c3d ac3b 16be 27d4 153e 199e bcbd
00000080: 65ae 24bd 96ef 9f3d d5a7 0e3c 6b85 a0bd
00000090: 7b9b 8a3d 4915 83bd 3ae3 b03d 8594 80bc
000000a0: ba92 283e 053d 763d 4292 373e a6d6 e6bd
000000b0: 4f08 7bbd 3985 d3bd 3c8b 0abe 5da7 e83c
000000c0: 550b d6bc 182d 0dbe 8719 42bc 141e 9bbd
000000d0: f3ef 263e 41fd bb3b d89f 80bd ab4d 103e
000000e0: b92b 0a3d bcc9 b93d 5ae9 86bd 0a37 bdbd
000000f0: 3909 3fbb 5a58 133e 7a83 823d 6408 0dbe
00000100: 5722 083e 6bee f03c e496 6ebd d4ef 08bc
00000110: f502 aebd f709 f33d d654 d5bd 7b47 f2bb
00000120: 0b54 d2bd ec4f 963b 3827 983d 3c0d 323e
00000130: b3d6 0cbe 81cb 97bd 5e11 6dbd f84d 863d
00000140: fae9 5f3e 57f9 b23c 5815 93bd e943 83bc
00000150: 07b8 163e a0f3 2abc 6577 b03d 36a2 8c3d
00000160: 7c37 cf3d 6521 6ebd 6aae 47bd 80dc abbb
00000170: d297 fabc 8856 7e3d 2aea 0c3e 8eec cbbd
00000180: 4891 e73d 7858 6cbd d6b2 c83d d784 f5bd
00000190: 681a 8cbd 5555 08be b8b9 d2bd c839 aa3d
000001a0: aad9 b5bd 242d 01be 7e74 f6bd ac09 e93d
000001b0: 38f6 353e 0929 eebd d9e0 02be d060 a43d
000001c0: cbb3 213e 94f7 d4bd e39c 4f3d 837c 4a3d
000001d0: 0101 f2bd 0679 623d b9d1 dabd 3da1 e53c
000001e0: 9422 c43d 4b48 2d3e 45b5 793d a44d c13b
000001f0: faf5 ec3d e18f 2bbe 26b3 1ebd 47a9 f93c
00000200: 5f2c c23d 6006 bf3d 6ab4 35be 24dd 2e3d
00000210: d5ba fb3c ad6d ecbd fe95 16be e692 e53d
00000220: 29ef eebd d93e a03c 1a45 37be 70c1 b6bd
00000230: 4605 1a3e 1147 c6bd 34ac 2dbe d8ae 043e
00000240: 25dc 0a3e 52d8 ad3d e930 923d b006 4b3c
00000250: 90fd c13c ba80 e93d f2a9 4c3d 7079 4fbd
00000260: 88c2 89bd 34b6 9dbc ce29 183e 8552 023d
00000270: 1d01 8b3d cce5 0dbe d182 303e fc91 953b
00000280: 234a 043e 5267 7e3d 3565 303d 68c1 913d
00000290: 9dbc d93d 2993 8a3d cd43 2c3e 5be3 11be
000002a0: 53f9 153e 3eed adbd 9a3d a8bd ba1a 86bc
000002b0: b0f5 c23d ca26 2eb9 4856 073e 07eb 84bc
000002c0: 4d2d c13d 2130 1a3e 7894 be3d 1cee 003e
000002d0: 22fb 8f3e 0170 d1bd fd25 bd3d 11a6 a0bd
000002e0: 7e2c 1a3b 34d4 293c 11a3 1bbd f06b 59bd
000002f0: f7af 2b3e ac26 21bd fe88 56bd f66c 043d
00000300: 55c8 453e 68a4 d63d b225 793d f198 1bbc
00000310: c4a1 153d c337 ae3d 8a7f a5bd 2217 9dbd
-0.114534214 0.060581397 0.08154847 0.016517924 0.11042284 0.0743954 0.08357638 0.100177206
0.05361846 0.111851886 0.041000545 0.12251062 0.014983056 -0.09998368 -0.10897578 0.065266065
0.041034903 -0.17153361 0.015623859 0.1258931 0.059904594 -0.08319511 0.05123374 -0.11560893
0.12103309 0.120394185 0.08901585 -0.09651261 0.04590977 -0.146712 0.14631711 -0.09209842
-0.040205378 0.07809369 0.008707006 -0.078379475 0.06767937 -0.06400544 0.0863709 -0.01569582
0.16462222 0.060116787 0.17926887 -0.1127141 -0.06128722 -0.103281446 -0.13529676 0.028400118
-0.02612845 -0.13786733 -0.0118469065 -0.07574096 0.16302471 0.0057369773 -0.06280488 0.14092128
0.033733103 0.09071681 -0.06587477 -0.092390135 -0.0029149784 0.14389172 0.063727334 -0.13772732
0.1329435 0.029410562 -0.05824937 -0.008357961 -0.08496658 0.11867135 -0.10416572 -0.007393775
-0.10269936 0.004587164 0.074293554 0.17387861 -0.13753776 -0.07411862 -0.05787789 0.0655784
0.21866599 0.02184741 -0.07181805 -0.016023593 0.14718638 -0.010434061 0.08616523 0.06866877
0.10118005 -0.058137316 -0.04875032 -0.0052447915 -0.030589972 0.06209424 0.13761202 -0.099572286
0.11307007 -0.057701558 0.09799735 -0.11988228 -0.06840974 -0.13313802 -0.10289329 0.08311802
-0.08879407 -0.12614876 -0.12033938 0.11378798 0.17769706 -0.116289206 -0.12781085 0.08026278
0.15791242 -0.10398784 0.05068673 0.04943515 -0.11816598 0.0552912 -0.10684533 0.028030986
0.09576908 0.16922109 0.060963888 0.005899148 0.11570354 -0.16754104 -0.038745068 0.030476226
0.09481119 0.09327388 -0.17744604 0.042691365 0.030728737 -0.115443565 -0.14705655 0.11209659
-0.1166671 0.019561218 -0.17897454 -0.08923614 0.15041074 -0.096815236 -0.16960222 0.12957323
0.13560541 0.084885255 0.07138235 0.012391731 0.023680478 0.11401506 0.04996676 -0.05065292
-0.06726557 -0.01925192 0.14859697 0.031816978 0.06787322 -0.13857192 0.17237402 0.004564522
0.12918906 0.062110253 0.04306527 0.071169674 0.10631678 0.0676635 0.16822739 -0.14246885
0.14645891 -0.08492516 -0.082148746 -0.016370166 0.095195174 -0.00016608383 0.13216507 -0.016225351
0.094324686 0.15057422 0.09305662 0.12590832 0.28121287 -0.10226441 0.09235761 -0.07844175
0.0023525055 0.010365535 -0.03799731 -0.053081453 0.16766344 -0.03934352 -0.05237674 0.032330476
0.19314702 0.10480577 0.060826965 -0.009496913 0.036531225 0.085067295 -0.08080967 -0.07670428

encoder.weight_hh_l0 f4 [200, 50]
00000000: 17f7 dd3c 1d09 babd 30c0 7c3d 0675 8cbd
00000010: 4f6d a23d 158c f93d 0982 2b3e 519c ab3c
00000020: 05cf 173d 2dde 203e b05a 5a3b 24b6 253d
00000030: 27bf c43b 1e45 b0bd 4c12 27be 71df 76bd
00000040: 0783 5c3d bb10 52bd 5d6a 413e 5f54 f23c
00000050: 082f 2c3c 4e9f 1c3c 274f dabc 1588 72bd
00000060: 5229 593d c739 8d3d 998a 90bd f652 e5bd
00000070: c95d 16be 3031 1abe 7226 e13c 243a 4d3d
00000080: 2c86 233e 9329 a83d 9fcd ed3b 389a 6c39
00000090: d5d3 14be bee5 4abd cb73 cb3d f18e f13d
000000a0: 01c5 48bd 5f1f 98bd 9436 583d 46ba 40be
000000b0: 2ace a33d a289 48bd af8d 3c3d 997c 423d
000000c0: 97a0 153e ad27 ba3d 265b 063d 0151 82bd
000000d0: 84b2 4b3c a7ae 5bbd 9fd1 ff3d 4469 11be
000000e0: beba f43d f6a2 cfbd 622a 003e 6104 87bc
000000f0: fbac a8bb f5b6 bbbd f902 f3bd b646 94bd
00000100: 0cf5 c83d 205f af3c 4c94 293c 5fd3 0cbd
00000110: dbe4 cf3d 05f5 563c a25f ef3d 817b 6bbd
00000120: aaf3 d3bd 9694 a1bd 3a3d a4bd 9df3 11be
00000130: fd47 90bb 0bd7 09bb 7c39 d13d bb31 003c
00000140: 3cfc e5bd 5cb7 933d 7a2b e03d ba66 f2bd
00000150: a344 273d af42 c53d 50d0 4cbd 511b ddbd
00000160: bf28 5ebd 6dcd e73c 54de 123d f416 20bd
00000170: 1a1e 09be 50fc 93bd 8f1f b3bd 28ef c23b
00000180: 60f7 ad3b 47b4 db3d 5642 aebd 7c3b bcbc
00000190: 9283 e73d 8faf 653d 2e4e b03d b4a5 37bd
000001a0: d9fc bc3d bc84 43bd 9e24 83bd a465 a7bd
000001b0: 15f9 2cbd f47b 523d 5b18 0d3c f44f f13d
000001c0: 4a4c 7e3d 723a 013e 9386 e73d a10a bc3d
000001d0: f945 01be 6ed0 0abe 5df9 02bd abe8 fa3c
000001e0: 5b2d 103c 9277 b23d 9552 003e ade1 023e
000001f0: 2a1f eebd ec81 1b3d 667f 20be 01f1 dfbd
00000200: 9ef4 003e 1fee 9a3c 6c11 95be e3aa 023e
00000210: 83f3 9abd 2bd7 0fbe b46a 1fbe 617d 3dbd
00000220: 3d38 533d 799e 0a3e 87fe 4f3d 8eb3 cd3d
00000230: d532 063e 9206 0cbe b8a3 00be 607c cc3d
00000240: 2c9e e0bd 44ee 12bb e88a 993d eb55 f43b
00000250: 2ed4 963d bd4a a2bc f9f0 ec3d b007 7d3d
00000260: 4d0f 84bd e38a 2bbd 3e4b 013e 5757 4a3d
00000270: c648 043e 8064 4d3d 7e13 d4bd 87e1 fc3d
00000280: c879 153e 1ff0 75bd 17d1 64bd b279 e5bd
00000290: 7ca9 e1bd 7b57 b9bc d144 e03b 0738 81bc
000002a0: 6368 893c 6e1b fcbd 7bea 02bd a215 cf3c
000002b0: b454 9cbd 343a 0bbe 170c cc3d 8102 8c3c
000002c0: 5850 9dbd b72d 50bc 9db7 78bd 1c54 08bc
000002d0: 0ddc 17bd c275 563d 0716 113e 5f79 a8bd
000002e0: b032 2fbc 043d 19be ec08 17be 39ad 1ebe
000002f0: 7ad7 1bbd 27e2 a33d cff9 fcbd 46c9 873d
00000300: daf9 44bc 5632 823d a706 043e 2032 95bc
00000310: 3a61 cbbd 2940 3abd 2510 a23d bf3e cebd
00000320: ce89 963c 9d55 7a3d 59b7 3cbc 2b6e 3dbd
00000330: 405b 76bd a736 bf3c b5db 9fbd 4f26 f43d
00000340: 7b5d ab3b c38d a0bd aa6c 1e3d d56a be3c
00000350: dbfe 553d 4821 f4bd a27e d9bc ca8e f5b9
00000360: 3985 d3bc 76b0 cabd 168d 67bd d8f1 d63d
00000370: e530 0abd f8b1 bf3d 2f63 8abd 60bf d4bd
00000380: 38c2 ddbd f4a3 56bd f0c8 11be 4888 c5bd
00000390: 11ea eb3d 343a cb3d 4229 47be 66a4 d53d
000003a0: 25eb d5bb 35f9 253d 3f82 003e d884 0e3e
000003b0: d8de cf3d 4090 c13d c123 a4bd e1ef 4c3c
000003c0: 20e2 0e3e 93ef 50bd 59b9 14bd 0130 c93b
000003d0: c87d 6dbd ef9d a0bd 7e9b c7bd d1b3 9f3d
000003e0: 7d45 0cbe a10b da3d 1b1a 353e 8aa4 d4bd
000003f0: 744b 183d 4451 08bd 5411 ccbc c5c4 b13c
0.02709536 -0.090837695 0.06170672 -0.06858258 0.07931005 0.12184922 0.16748823 0.02094856
0.037062664 0.15709753 0.0033318214 0.040456906 0.0060042324 -0.08606933 -0.16315573 -0.060271684
0.053835895 -0.051285487 0.1888823 0.029581247 0.01050926 0.009559466 -0.02664907 -0.05921181
0.05301792 0.06895786 -0.070576854 -0.11197464 -0.14684214 -0.15057826 0.027484152 0.050104275
0.15969151 0.08211055 0.007257178 0.00022564165 -0.14533933 -0.049535505 0.09934195 0.11794842
-0.049016003 -0.074278586 0.052786425 -0.18821058 0.07998307 -0.048959382 0.046033558 0.047482107
0.14612041 0.09089599 0.03280177 -0.063631065 0.012432698 -0.05363336 0.12491154 -0.14200312
0.11949681 -0.10138504 0.12516168 -0.01648158 -0.005147574 -0.09165756 -0.11865801 -0.072400495
0.09812364 0.021407664 0.010350298 -0.034381267 0.101510726 0.013119941 0.116881624 -0.05749083
-0.103492096 -0.07889669 -0.080194905 -0.14253087 -0.004403113 -0.0021032717 0.102160424 0.007824357
-0.112297505 0.072127074 0.109457925 -0.11836 0.04083694 0.096318595 -0.05000335 -0.10796226
-0.054238077 0.028296197 0.03585656 -0.03908439 -0.13390389 -0.07225859 -0.08746254 0.00594892
0.0053090304 0.107277445 -0.08508746 -0.022977583 0.11304392 0.05607563 0.086086616 -0.04483576
0.09227914 -0.047734007 -0.064034685 -0.08173683 -0.04222973 0.051387742 0.008611764 0.11782828
0.062084474 0.12619951 0.11304965 0.09181715 -0.12624349 -0.13556072 -0.031976093 0.030628523
0.008799876 0.087142125 0.12531503 0.12781401 -0.11627038 0.0379657 -0.15673599 -0.1093464
0.12593314 0.018912373 -0.29114854 0.127605 -0.075659774 -0.14046924 -0.15568048 -0.04626215
0.051567305 0.13537015 0.050779846 0.10044013 0.13105328 -0.13674381 -0.12562454 0.0998466
-0.10967669 -0.002241985 0.074971974 0.0074565313 0.07364689 -0.019811029 0.115693994 0.06177491
-0.06448231 -0.0418805 0.12626359 0.0493997 0.12918386 0.050144672 -0.1035528 0.123477034
0.14597237 -0.06004345 -0.055863466 -0.11204852 -0.11018655 -0.022624722 0.006844141 -0.015773786
0.016773408 -0.12309919 -0.0319619 0.02527887 -0.07633343 -0.13596421 0.099632435 0.017091038
-0.0768134 -0.012706212 -0.060721982 -0.0083208345 -0.03707509 0.052358396 0.14168559 -0.08226275
-0.010693237 -0.14964682 -0.14749497 -0.15495767 -0.03804729 0.080021195 -0.12352335 0.06630187
-0.01202246 0.06357257 0.12893163 -0.018212378 -0.09930654 -0.045471344 0.079132356 -0.100705616
0.018376257 0.061116803 -0.011518323 -0.046247642 -0.060145617 0.02334149 -0.07805578 0.11921369
0.0052296496 -0.07839539 0.03867785 0.0232443 0.052245002 -0.119204104 -0.026549641 -0.00046836428
-0.025820361 -0.098969385 -0.056531034 0.10495347 -0.033738036 0.09360117 -0.06757199 -0.103880644
-0.1082806 -0.05240245 -0.14236808 -0.09645134 0.11519254 0.09923211 -0.19449332 0.10431747
-0.0065282756 0.040520865 0.12549685 0.13917863 0.10149926 0.09451342 -0.08014632 0.012508363
0.13953447 -0.051009726 -0.036309574 0.0061397557 -0.057981282 -0.078426234 -0.09746455 0.07797969
-0.13698383 0.10646749 0.1768574 -0.10382946 0.037181333 -0.033280626 -0.024910606 0.021700272

encoder.bias_ih_l0 f4 [200]
00000000: 7982 803d 8f59 05be 80fb a13a fcb7 debc
00000010: 3e77 5ebd fa28 0f3d db37 003e 333f 2f3e
00000020: 8bf4 623c 6cad debd c74d 85bc e0c6 abbc
00000030: d7a7 8fbd f56b ab3c 921b e5bd 0f9b 72b9
00000040: c9a6 9fbd d03e 0b3d 8944 7e3d df04 cf3d
00000050: 07b0 b93c 4a47 553c 3075 153e 32af 21bc
00000060: 4f7a b33d f867 97bd c0dd f13d 11e6 123d
00000070: 3446 f1bc f0f8 843d d832 583e 839f 06be
00000080: 1aa1 05be 1ec6 eabd c124 21bd 781a 83bd
00000090: 429d a53d 2410 8abd ba6f 143e 29dd acbd
000000a0: 288a 8abc 9548 e4b9 149b 6ebd d77d d53d
000000b0: af0c 2f3d d494 3a3d f22e 08be 1acf 97bd
000000c0: f4c7 40bd f2f9 21be 11a0 4ebd 83ac 18bc
000000d0: 3964 c83d c4b3 cd3d 913c c4bd a2e3 55bc
000000e0: f3eb b4bd 8454 09bc 0965 05bc e350 a8bc
000000f0: 9bf7 a6ba 2df2 fd3d cb38 93bc fb22 da3d
00000100: f8b0 f7bd 898a 9ebd c3d6 b2bd ee8e 743d
00000110: 4e21 ce3d d4a1 953d 54de fb3c 5211 d8bd
00000120: 245d debb 955a 08be 0f9c bd3d d3da eebd
00000130: 2778 ea3d 4fd0 d9bc a8e7 cdbc 9fb2 b3bd
00000140: 5666 3c3e 8d93 06be c1c4 243d 41ca e73d
00000150: 0157 373d 3819 0cbe 0b91 edbd 5f7d bbbc
00000160: 379e 163e f965 25bc 01e1 c83d 9121 983c
00000170: c7fd 823d 9158 683e 3ead 0abd 4717 063e
00000180: 7828 2b3d 1ef6 77bd 2f51 cfbc bb6e a63d
00000190: 6488 4b3d 050b ffbd 8e6e 09bb 3929 013d
000001a0: 42f1 61bc c882 e53c 6f51 18bd 8cfe c6bc
000001b0: f091 6dbc 5ee8 bebd 7bb6 883d faaa 7bbb
000001c0: 4977 cd3c 5411 c4bd 0939 9d3d 30ab 543c
000001d0: a0c0 24bc 4872 243d 51d8 a13d 608a 8abd
000001e0: 65dc 7e3d e403 c9bd 8a0e ebbc eb5a cf3d
000001f0: 70b6 82bd aeec 723d 1c54 a5bd cb65 693d
00000200: 3e18 cc3d c940 8c3c 0bc8 cc3d 9d71 0c3e
00000210: 4ecf 0bbe c326 68bd d3cb 98bd 6231 0dbd
00000220: de00 fa3d 754e 6c3d 1158 debd 89bd 61bd
00000230: 4ce1 8fbd 34cb eaba 057c b8bd 68c0 05be
00000240: 3250 c53d 5a17 c0bd e239 3d3d 77be cc3d
00000250: 7c16 5f3d d7a4 923d 7c63 193c 5e92 133e
00000260: fed8 bdbd d18d 86bd 345b 033d 7c72 f23d
00000270: 0628 ca3c da46 43bd 0215 cdbd 923a 90bd
00000280: eedf d5bd 1dcc d73c 1464 2e3d f89c d03a
00000290: a28c 7ebc 2cf3 bcbd b5c0 ba3c 0969 a7bd
000002a0: 76f1 64bd e8d1 1dbd b67f cb3a ec4c 5dbd
000002b0: 619e 913d ff80 92bd 4b85 153e 136f a2bd
000002c0: 944b f13d 6f0c 80bd 8f68 b6bd 88da e43c
000002d0: 78c0 443e b437 b03b d6ac a1bc c519 02bd
000002e0: 3eb3 023e 5d2c 92bd 29fe d5bd 6a18 0abe
000002f0: fec4 b2bd d979 19bd 23b2 4e3a ecf1 84bd
00000300: 1db7 273d 52ee 913d 9300 073e 2caf ff3c
00000310: 3c58 1bbe 1e92 ad3c b73e 71bd 0c5c abbd
0.06274886 -0.13022445 0.0012358278 -0.02718734 -0.054312937 0.034951188 0.12521307 0.17113952
0.013852249 -0.10872921 -0.016272439 -0.020968854 -0.07014435 0.020925501 -0.11186899 -0.00023136682
-0.077954836 0.03399545 0.06207708 0.10108351 0.022666944 0.013017485 0.14595485 -0.00986843
0.08763563 -0.07392877 0.118098736 0.03586394 -0.02945242 0.064927936 0.21113145 -0.13146786
-0.13049737 -0.11463569 -0.039341692 -0.06401533 0.08086635 -0.0674136 0.14495745 -0.084406205
-0.016911581 -0.00043541627 -0.058253363 0.10424393 0.042736705 0.04555209 -0.13299158 -0.07412548
-0.04706569 -0.15818003 -0.05044562 -0.009318474 0.09784741 0.10044053 -0.095818646 -0.01305476
-0.08834066 -0.0083819665 -0.008141764 -0.020546382 -0.0012738587 0.12399707 -0.017971417 0.10651203
-0.12094301 -0.07741267 -0.08732369 0.05970662 0.10064946 0.07306257 0.030745663 -0.105501786
-0.0067860056 -0.13315804 0.092582814 -0.11662831 0.114486985 -0.026588587 -0.025134876 -0.08774304
0.18398413 -0.13142224 0.0402267 0.11317874 0.044760708 -0.13681495 -0.115999304 -0.02288693
0.14708792 -0.010095113 0.09808541 0.018570693 0.063960604 0.22690035 -0.033856623 0.13094817
0.04178664 -0.06053745 -0.025307266 0.08126589 0.04969062 -0.12453274 -0.0020970437 0.031533454
-0.0137904305 0.028016463 -0.037187036 -0.0242913 -0.014500126 -0.09321664 0.066754304 -0.003840147
0.025081294 -0.095736176 0.07676894 0.012980267 -0.010055691 0.04014805 0.07902587 -0.06764674
0.062221903 -0.09815195 -0.028693456 0.10124763 -0.063824534 0.059307747 -0.08072683 0.056981843
0.09965561 0.017120736 0.09999093 0.13715215 -0.13653299 -0.05667759 -0.074607514 -0.034470923
0.12207197 0.05769201 -0.10856641 -0.055112395 -0.07025394 -0.0017913342 -0.0900803 -0.13061678
0.09634437 -0.09379454 0.04619778 0.09997266 0.054464802 0.07160347 0.009362098 0.14411303
-0.092699036 -0.06570018 0.0320694 0.118382424 0.024677288 -0.04767499 -0.100137725 -0.070424214
-0.10443102 0.026342446 0.04257591 0.0015915921 -0.015536459 -0.09226069 0.022796968 -0.08174331
-0.055894338 -0.03853026 0.0015525732 -0.054028437 0.071102865 -0.0715351 0.14601628 -0.07931342
0.117819935 -0.062523715 -0.08906662 0.027936235 0.19214046 0.005377734 -0.019735735 -0.031762857
0.12763688 -0.07137368 -0.10448868 -0.13485876 -0.087289795 -0.03746972 0.0007884821 -0.064914554
0.040946115 0.07125534 0.13183813 0.031211458 -0.15170377 0.021187838 -0.0588977 -0.08367166

encoder.bias_hh_l0 f4 [200]
00000000: 0b6d 3d3c 2ca1 563c 36ee e0bb 1a9e e5bd
00000010: 300c a33d ac3d c3bc 85cf abbc 928c 153e
00000020: bed5 f73d 05f0 f5bd 54f8 893d 67bc ca3c
00000030: 91fd b0bd 755a 26bc 0870 693d 2297 133d
00000040: 39d7 2b3c d7c5 b13d bca5 e1bd 9c8a 253d
00000050: 875d 0abd 6a9d 9f3c 8695 133e 2f39 c83c
00000060: d16a 01bd ba66 30bc da1c 0abe 4dba fa3c
00000070: b9f9 91bd 18cb b23d ad59 ca3d 3998 483d
00000080: 966b 0abe 7af2 8b3d 7c2c 183d 7eca adbd
00000090: 4f18 f6bd 8fe7 663b 63d3 0e3e c269 a8bd
000000a0: 47b7 723e cacb d13c 2293 bbbd 2cc8 26bc
000000b0: d9bd 64bb de90 853d b08c 8f3c 5827 b9bd
000000c0: 763b a93d d6db 323d 2bb7 67bd 3270 b23d
000000d0: 6a5e 0dbd 864b d0bc f56e 853d 8a50 d93c
000000e0: b99a 5f3d d17b 203e cbbb 103e 758b 1ebe
000000f0: 3a30 303c 7239 a9bd 9293 0a3d ae3f 58bd
00000100: 9440 0fbe 81e5 e13b 8d94 a4bd 91be 2b3d
00000110: f594 7abd c31c 643d 3b3e 653d f8b4 debd
00000120: 908f 4abd abeb a53d aae4 66bc 50d1 db3d
00000130: a99b a2bc d19b 0abe 958e f2bc 8e0c 05be
00000140: 7101 9e3d 8130 52bd 3f01 f03d 4e3f 06be
00000150: c563 1eba 8089 ad3d a116 d3bb 6deb 91bd
00000160: 6761 e5bd 2c30 053d 8454 5a3e a88b 363b
00000170: 8ce3 14bd 100b 623e 8792 0a3d cc6b 183d
00000180: 2640 e8bd e573 86bd 745a 3e3d 7ec3 6abd
00000190: e374 e93a 22e2 dd3d 6722 1cbd 0814 4b3d
000001a0: f799 1fbd 1408 bd3c a97f dc3d 1ecd 3ebd
000001b0: 65ab 853d 6067 ec3d 6a0b efbd 89a2 d13d
000001c0: 512a d73d 512c 233e 9b83 8e3d 7970 133d
000001d0: 96d5 e6bb cc79 e4bd d74f 9dbd fd44 433c
000001e0: b40a 03be 8c29 adbd 2d7f 0736 fd42 d1bc
000001f0: 5d6f e03d d959 09be 4c9f af3d be74 9e3c
00000200: 5c62 d0bd 139f d93d ca23 2abd 615a 823d
00000210: 26dc 03be 01c5 e7bc c1b4 be3d f7ac 9b3d
00000220: 5ded 633b 76dd d03c c056 ec3d a816 babd
00000230: a2ae 1bbd 8e24 c8bd 24e7 bd3d 67bb d53c
00000240: 9df5 0c3c 52a8 943d 514f 91bd 1d80 ac3d
00000250: 1b15 c0bd 83a2 63bd 1190 b33c b68f cdbc
00000260: a94c eabd 553b f6bd 82e8 fe3d a805 acbd
00000270: 33f5 7cbc 8404 f23b 92a0 8ebd 46d7 ebbd
00000280: d4d0 163e 4c79 fe3d b262 4ebd 6a1a 32bd
00000290: cdb6 a23d 4e56 b33d b3d8 573d 8f46 abbd
000002a0: e421 fe3d 14df 17bd b41e d5bd a996 73bd
000002b0: a0e1 2bbc c442 30bd eb25 9dbd fa18 b3bd
000002c0: 7a12 ccbd 3f03 e1bd 3f7f c3bd de73 963a
000002d0: b850 503e 0f4f b93b 73a0 5a3b 665e 91bd
000002e0: afc2 9d3d 27ae 83bd 5509 acbd cea1 9dbd
000002f0: a4cf bbbd 63f7 22be b1d2 443e 9353 0abe
00000300: cf2d 86bc 9660 213e dd48 e3bd f0e2 02be
00000310: 7754 bebd 355e 16bd c0eb 01be 6237 b2bc
0.011561642 0.01309995 -0.0068643345 -0.11211796 0.07961309 -0.023833118 -0.020972976 0.14604405
0.12101315 -0.12008671 0.06736818 0.02474804 -0.08642114 -0.010153403 0.056991607 0.036032803
0.010488325 0.08680313 -0.110179394 0.04041539 -0.0337806 0.01948424 0.14412507 0.02444133
-0.03159601 -0.010766679 -0.13487568 0.030606413 -0.07127709 0.08730143 0.098803855 0.048973296
-0.13517603 0.06833358 0.0371518 -0.08485888 -0.12016355 0.0035233235 0.13947825 -0.08223297
0.23702727 0.02560987 -0.09158923 -0.010179561 -0.0034903197 0.06521772 0.01752314 -0.09040707
0.082632944 0.043666683 -0.056571167 0.08712806 -0.03451387 -0.025426637 0.06515304 0.026527662
0.054590914 0.15672232 0.14134137 -0.15482886 0.010753686 -0.0826291 0.03383214 -0.052795105
-0.13989478 0.006893814 -0.08036146 0.041929785 -0.061177213 0.05569149 0.05596755 -0.10874361
-0.049453318 0.08101591 -0.014092604 0.107332826 -0.019849615 -0.13536002 -0.029609004 -0.1299307
0.07715119 -0.05131579 0.11718988 -0.13110086 -0.00060420885 0.08473492 -0.0064419066 -0.07124982
-0.11200219 0.032516643 0.21321303 0.0027854238 -0.036349818 0.22074533 0.033831146 0.037212178
-0.1134036 -0.06565074 0.04647298 -0.057315342 0.0017811324 0.10834147 -0.038118746 0.04957965
-0.03896519 0.023075141 0.10766537 -0.046582334 0.065268315 0.11543155 -0.11672099 0.10236079
0.10506118 0.15934874 0.069586955 0.035995934 -0.0070445044 -0.111560434 -0.07681244 0.011918304
-0.12797052 -0.0845519 2.0190594e-06 -0.025544638 0.10958741 -0.1341318 0.08575305 0.019342776
-0.101750106 0.10626044 -0.041538037 0.06364895 -0.12876949 -0.028292181 0.0931182 0.0760135
0.003477893 0.025496226 0.11539984 -0.090863526 -0.03800834 -0.09772597 0.09272602 0.026090337
0.008603481 0.07258667 -0.070952065 0.08422873 -0.093790255 -0.055574905 0.021919282 -0.02509294
-0.11440403 -0.120230354 0.12446691 -0.08399516 -0.015439319 0.007385792 -0.0696422 -0.115156695
0.14728099 0.12425479 -0.050387092 -0.04348222 0.07945023 0.08756696 0.052696895 -0.08363067
0.12408808 -0.03707798 -0.10406247 -0.059469853 -0.010490805 -0.043032423 -0.07673248 -0.08744998
-0.099644616 -0.10986947 -0.09545755 0.0011478623 0.20343292 0.0056551765 0.0033359795 -0.07098083
0.077031486 -0.06429701 -0.084002174 -0.076968774 -0.09170464 -0.15914683 0.19220997 -0.13508444
-0.016379265 0.15759501 -0.11097882 -0.12781882 -0.09293454 -0.036710937 -0.12687588 -0.021754924

encoder.weight_ih_l1 f4 [200, 50]
00000000: 3b1d f9bc dcb4 aebd c4ce 12be d8ef 30bc
00000010: 7548 1e3d c110 6fbd a036 223c 34bd a73d
00000020: 8d66 a8bd a732 1ebe 9e30 a73b f035 0a3e
00000030: b093 debd f794 b03d 9d0b 00bd f283 bc3d
00000040: 3f0d 893d 240e 9dbd 8777 29bd 5323 8b39
00000050: 8dab 9fbd a2cd 1fbd 0fd5 e4bd e12c f5bd
00000060: 07a4 9dbd 6c9a b6bc ca42 f83d 4096 0d3e
00000070: 9561 f6bd 559e 693d d69a acbc f473 01bd
00000080: 713d 0dbe 5917 2d3c c686 e3bd 5a7c 7c3d
00000090: 3bae dd3c b992 1b3e 7aaa 28be bebd bdbd
000000a0: 6e3b 0f3c 42f1 a53d 6d23 33be fe14 d63d
000000b0: 067f 3e3b 1962 833c 826e 04bc 7f7e e8bd
000000c0: 9d11 403d ee09 d93d c0bc edbd c2bd 2fbd
000000d0: b511 b3bd 828f d2bd 8eb8 01bd d09c 86bd
000000e0: 5aa2 36be c85c 8ebd 020f 183e faf3 03be
000000f0: cbfb a93d c180 a23d 351c 72bd bcfa 9e3d
00000100: 5e67 7cbd 7605 b3bc 8290 babd 890a b5bd
00000110: e6bd 7b3c 8f56 3c3d 6fae 18bd 335c ff3d
00000120: 6d77 e2bd eef9 9fbd a0d3 05bd cedd 9bbc
00000130: 0015 9dbd dfab 0abd 9bbd c1bd 3c0c 68bd
00000140: c8e1 11be 5c2d ffba 3571 c13b 2325 07bd
00000150: 89fa 4dbc 7baf 003e 3dab f33d a988 a83d
00000160: 7572 1fbd 1b4e b9bd f700 573e 8b80 573b
00000170: 185a 8dbd 14a0 a23d c963 1fbd 8bde 10bd
00000180: 1682 dbbc 0824 55bd 2762 c53d eb6e 163e
00000190: 349e da3d a70b ebbc 40c3 8b3c dbdb 183c
000001a0: 979a dd3d 9669 1dbe a01b 2bbb 454a 3ebb
000001b0: 7f53 c0bd f18d ac3d 53a9 6b3c af03 c2bd
000001c0: 368a a2bd d136 16be f38e cabd 17f5 683c
000001d0: f425 3cbd 0fd5 22bd aec8 f1bd 1f31 7fbd
000001e0: 2255 f1bd 51d5 0f3c 0441 1bbd fcde 633a
000001f0: f20a 873d 0e6a 1cbd ef2e d23c 550d d0bd
00000200: a62a 213e 8e1b 063b e5c1 00bd 31a2 b23d
00000210: b07e c1bd e589 efbd acd0 b3bd 3240 403c
00000220: 183f 99bd c78d e9bd 5ec2 483d 2834 a63d
00000230: 299b a6bc a620 9dbb f094 1ebd d20c 193e
00000240: 6e82 da3c a30c 93bd a1c7 163e 74ae 90bd
00000250: fb03 ef3d 80e5 f33d 2853 efbd 9e20 603c
00000260: f4f3 be3d b3b3 5a3d b5c8 c7bd 6e55 16be
00000270: 061d 37be 07b1 993d b08a 39bd d627 debd
00000280: e1b7 e23c c1cb 8ebd 1f57 d2bc 2b88 263d
00000290: ba11 bf3c f8ab cdbc 33f2 13bb a797 99bb
000002a0: 3b64 ddbc 5785 f9bd 26af 8b3b 36fa 07bd
000002b0: b7c3 e93d 926f 5b3d b842 34bd 9c89 ee3d
000002c0: c560 e43d 475d 00be 4307 a13c 42c8 883d
000002d0: a319 4cbd 10a7 cabd 381f 85bd d14f d7bc
000002e0: 5e26 23be 8f96 083e 8e25 3c3d 3eb2 e43d
000002f0: e161 a13d 484d 9ebd 4547 2e3d 4bf9 13bd
00000300: fe4d 953b 45c9 a93b ba35 dc3d 7fc7 81bd
00000310: 7f08 74bd 800d 023e d499 913d 2ee1 a33d
00000320: ada5 233c bee1 dc3c 0359 473d 9694 c83d
00000330: b0d6 f03d 678b f93c a8ca 29be 29de db3d
00000340: 57b2 d8bc faec 033d f5fa 003c d79f dabc
00000350: b111 ddbd c870 d73d 9bf3 c33c 80bb 9f3d
00000360: bd4d a9bd 92f9 babd 83ff 0dbd 2030 f93d
00000370: 7aa9 d73d 248b f5bd 4d80 f23b fb13 cfbd
00000380: 82d3 b13d 8200 943d f5fa a2bd 359f d43b
00000390: 67f3 96bc 888f 9e3d 7bf8 35be b444 7f3d
000003a0: aa4f 94bd fc8d f53d 7f40 b9bd eec4 2a3d
000003b0: 4cfa c1bd 92b5 ce3d 242a ce3c 5347 e43d
000003c0: b1d7 183e f07e 583d ccd6 663d 56e2 91bc
000003d0: d754 f8bd 1c51 f3bc 1290 d73c b716 bcbd
000003e0: 96b9 e1bd a155 1f3e fcc3 f5bd f9e5 e13d
000003f0: 4807 c6bd 7d83 323d 7ad4 c9bd 4a9e 263c
-0.030409446 -0.0853059 -0.14336687 -0.010799371 0.03864332 -0.058365587 0.009900719 0.081903845
-0.08222685 -0.1544901 0.005102231 0.13497138 -0.10868013 0.08622163 -0.031261075 0.09204854
0.066919796 -0.07668713 -0.041373756 0.00026538465 -0.077963926 -0.039014466 -0.1117345 -0.119714506
-0.07697301 -0.022290431 0.12122114 0.13826847 -0.12030331 0.057035763 -0.021069925 -0.031604722
-0.1379297 0.010564649 -0.1110969 0.06164203 0.027060619 0.15192689 -0.16471282 -0.09264706
0.0087421965 0.08102657 -0.17493983 0.10453223 0.002906741 0.016037988 -0.008082988 -0.11352252
0.046891797 0.10597597 -0.11608267 -0.042905577 -0.08743612 -0.10281278 -0.031670146 -0.06572878
-0.1783537 -0.0695129 0.14849475 -0.12886038 0.08299979 0.07934714 -0.05910893 0.077626675
-0.061622016 -0.02185319 -0.09109594 -0.088399 0.0153651 0.045980986 -0.037275728 0.124687575
-0.11057935 -0.07811342 -0.032672524 -0.019026663 -0.07670021 -0.033855315 -0.094599925 -0.056652293
-0.14246285 -0.0019468474 0.005903388 -0.0329944 -0.012571939 0.1256694 0.118978955 0.08229191
-0.038927514 -0.090481006 0.20996462 0.0032883014 -0.0690195 0.07940689 -0.038913522 -0.035368484
-0.026795428 -0.052036315 0.09637862 0.1469075 0.10674706 -0.02869208 0.017060876 0.009329761
0.10820501 -0.15372309 -0.0026108995 -0.0029035967 -0.093909256 0.08425511 0.014383632 -0.09473359
-0.07936518 -0.14669348 -0.09890547 0.01421859 -0.045934632 -0.03975397 -0.11805855 -0.062302705
-0.11783816 0.008778886 -0.0379038 0.000869259 0.065938845 -0.03818708 0.025657145 -0.10158793
0.15738925 0.0020463201 -0.031434912 0.08722342 -0.09447992 -0.11696223 -0.087800354 0.011734055
-0.07482737 -0.11403995 0.049013488 0.08115417 -0.020337658 -0.0047951518 -0.038716257 0.14946297
0.026673522 -0.07180145 0.1472459 -0.07064524 0.11670681 0.11909008 -0.11685783 0.013679652
0.09323874 0.05339403 -0.09755079 -0.14681026 -0.17882165 0.075044684 -0.04529828 -0.10847442
0.02767557 -0.06972457 -0.025676308 0.040657204 0.023323882 -0.025106415 -0.0022574782 -0.004687268
-0.027025333 -0.12183636 0.0042628227 -0.033197604 0.11414283 0.0535732 -0.04400894 0.11647341
0.1115127 -0.12535582 0.019656783 0.06678821 -0.049829137 -0.09895146 -0.06500095 -0.026283177
-0.15932605 0.13338684 0.045934252 0.111668095 0.07879997 -0.07729584 0.042548437 -0.036126416
0.0045564165 0.005181464 0.10752435 -0.06336879 -0.059578415 0.12700462 0.071094185 0.08001934
0.009988231 0.026963111 0.048668873 0.097939655 0.117596984 0.03046198 -0.16581213 0.10735733
-0.026452227 0.03220842 0.007872333 -0.026687546 -0.1079439 0.10519558 0.023919871 0.07799435
-0.082667805 -0.09129633 -0.034667503 0.12167382 0.10530372 -0.119894296 0.0074005486 -0.10111233
0.0868292 0.07226659 -0.079580225 0.0064887055 -0.01842661 0.0774222 -0.17770569 0.06232138
-0.07241757 0.11989972 -0.09045505 0.041691713 -0.094715685 0.100932255 0.025166579 0.111464165
0.1492603 0.052855432 0.05635719 -0.01780812 -0.12125557 -0.029701762 0.026313815 -0.0918402
-0.11021726 0.15560009 -0.12000272 0.11030192 -0.096693575 0.04358243 -0.0985498 0.010169575

encoder.weight_hh_l1 f4 [200, 50]
00000000: f9bb d7bc 6361 91bd 718b 9abd 1851 d1bd
00000010: fbc6 473b ceca 0c3d b1d6 073d 5489 e43d
00000020: 6831 fabc 5bb1 e83d 2520 05bd 8680 f3bc
00000030: 171e cc3d cd5f 9cbd 56d8 a63d 1b7b cd3d
00000040: 3baf 153e 9ec8 d6bd 9f03 833d cf97 9b3d
00000050: 2362 823c e20d d5bd 1a4a 4b3d 7c7b a73d
00000060: 3b6b b73d 344d 67bb 4cc9 0cbb dfd0 acbc
00000070: e3ae f1bd dc1b 9abd 55af aabc 179d fa3d
00000080: f580 98bd fe22 f03c b784 bdbd 2149 14be
00000090: 4bf8 ec3c ad1d f53d eea5 1fbd 264f 81bd
000000a0: 4aa9 22bd ba6d efbd dfa5 afbb 231e 39bd
000000b0: feaa 0c3e c34d d3bd ace3 9f3d f579 0c3d
000000c0: fbb8 0ebe 532b 8c3d cd6a f23d 44e3 d2bd
000000d0: 336a e13d d319 85bd ccc2 cd3d 1746 08be
000000e0: 4698 e7bd 2c53 183d a92d bd3d 90d5 e73b
000000f0: 69fc 6c3d 06b1 553d 7526 633d 0817 983d
00000100: b847 a33d 8a07 b53c 8c88 94bd 181f 053e
00000110: 1970 9a3c 832b fa3d 2204 a23d 35a4 e1bd
00000120: 0ae9 f9bd 5645 d5bd a710 17bc 22aa b1bd
00000130: 9a50 d13d 4f1a efbc bd77 493d 723c 653d
00000140: 4895 463b 963c c43d 2c0d fe3d 989c 693c
00000150: 83b2 b93d 2f40 eebc 8dc8 7abd aaa7 16bd
00000160: a6d3 a03d 6bfd e93d b941 913c 1342 003e
00000170: 562d ac3d 8113 073e b81a cbbd 28e2 85bd
00000180: e00d 973d 5539 51bd ca5e 95bd a096 fabd
00000190: 3f64 aebd d4de b2bd 6f9b cabd 5101 d4bd
000001a0: 7730 e93b 620e f5bb 0472 723d 71a8 f6bd
000001b0: 98d0 6abd 5119 f2bd 55d3 94bd f5aa 1bbb
000001c0: b932 f73d e71c e1bd 93f7 92bc b34f e0bc
000001d0: 08e5 083e 1aae b2bd 9dcc f63c d884 243e
000001e0: 395e 4e3c 07f9 d6bd 5613 44bd 92ab d53d
000001f0: 6b9e 813d 4e52 533d 675c 143e b1c3 97bd
00000200: 6451 5c3d 2105 e13d 16c5 a23d d55a 37bd
00000210: 3db7 efbd c51f b4bd ed17 e13d 9aa9 02bd
00000220: fe0a c53d d8e8 43bc caec 593d 82d2 8a3d
00000230: 02b5 38bc 55da 01be 2dd0 98bd dbc5 393d
00000240: a661 b63d 115a 3bbd 07c3 b7bd 9b19 1abd
00000250: d9bd 37bd b197 163e 373a 913d b277 a53b
00000260: 74b1 a9bc b9ba 9cbc 2c93 b5bd 4ef4 9fbd
00000270: 7b6a 173d 951f 97bd f542 9bbd 46f9 cabd
00000280: d6f0 61bd 5e49 d03d f550 ebbb f58e 0fbe
00000290: 4800 c33d 8b94 8a3c 7555 053e 38f1 753d
000002a0: 56d5 083e 1684 fdbc d16e 6b3c 6347 243d
000002b0: 107f 3a3b e269 e1bd bec8 b2bd 90a2 c83c
000002c0: 0485 dabd 234e 083e bf3f 2a3d 1663 363d
000002d0: 4fb4 e23b d47b e03b 6e5f bf3d f470 78bd
000002e0: 84c4 d83d d8a3 15bd cab7 0ebd f437 0e3e
000002f0: ef79 81bd 981c 7fbb 450e 9d3d a9f4 a6bd
00000300: bbc8 053e 08ff 96bd ce68 423d a644 b73d
00000310: 498a 30bd 3276 153d 8d0c cf3d bcd3 7ebd
00000320: 643f 58bd cffc ea3c ad1a 0abe 7545 683d
00000330: 7f5d e8bd 3a81 41bd ee69 80bd 1064 f73d
00000340: ff89 023e c833 4abd 0faa 0d3e 4551 aa3d
00000350: 5388 dd3d 14a3 653c 34e4 18be 321c 233e
00000360: 4d02 e2bd 2de7 833d f0fc 07be 939d 11bc
00000370: b4b3 ccbb a150 6ebc bd6b 3d3d da76 cfbd
00000380: a81d 483d bd83 ddbd bd5a ef3b 118b 873d
00000390: 9901 773d 00a3 5b3d 6cfb 15bd f874 f7bc
000003a0: 55f5 cb3d 70e2 fa3d ad67 92bc a03b a73b
000003b0: 4ca5 953a 9ca9 f63c 9279 55bd c359 063d
000003c0: 4378 133d cf0b e1bd da13 6bbd 8527 dbbd
000003d0: 27fb b23d 6100 74bd b860 823c 1956 bf3d
000003e0: c12d 9abd 4d8b d6bd f181 c93d d91d 04be
000003f0: 7327 b63c c5e8 813d 0433 cd3d 12ce aebd
-0.02633475 -0.07098653 -0.075461276 -0.102205455 0.0030483592 0.034373097 0.03316373 0.11159006
-0.030541137 0.11361953 -0.03250136 -0.02972437 0.09966677 -0.0763546 0.081467316 0.10033246
0.14617626 -0.104874834 0.06397175 0.075973146 0.015915936 -0.104030386 0.049631216 0.0817785
0.089559995 -0.003529382 -0.0021482287 -0.021095691 -0.11800935 -0.07524845 -0.020835558 0.12236994
-0.074464716 0.02931356 -0.09253829 -0.14481021 0.028926989 0.11968551 -0.038976602 -0.063139245
-0.039712228 -0.116908506 -0.0053603495 -0.045194756 0.13737103 -0.10317566 0.07807097 0.034295995
-0.13937752 0.06844201 0.11836777 -0.10297254 0.11006584 -0.06499066 0.1004692 -0.13307987
-0.11308341 0.037188694 0.092372246 0.007075019 0.057857905 0.052170776 0.055456597 0.07426268
0.07972664 0.022098321 -0.07252607 0.13000143 0.01885228 0.122153305 0.079109445 -0.11017648
-0.12202652 -0.104136154 -0.009220279 -0.086750284 0.10220452 -0.02918735 0.049186457 0.05596585
0.003030138 0.09581868 0.12404856 0.014258526 0.090672515 -0.02908334 -0.061226416 -0.03678099
0.07852869 0.11425289 0.017731534 0.12525205 0.08407085 0.13191034 -0.099172056 -0.065372765
0.07375693 -0.051080067 -0.0729347 -0.12235761 -0.08515214 -0.08733907 -0.09892928 -0.103518136
0.007116373 -0.007478521 0.059190765 -0.120438464 -0.057327837 -0.11821235 -0.07266871 -0.0023753021
0.120702215 -0.10991841 -0.017940318 -0.027381754 0.13368618 -0.087246135 0.030126864 0.16066301
0.012595707 -0.10496717 -0.047870003 0.10433115 0.06329044 0.051592164 0.14488374 -0.07410372
0.053788558 0.109873064 0.079477474 -0.04476436 -0.11704872 -0.08795122 0.109908916 -0.031900026
0.09621237 -0.01195737 0.053204335 0.067784324 -0.011273624 -0.12680943 -0.074615814 0.045354705
0.08905344 -0.04574019 -0.089727454 -0.037622076 -0.044858787 0.14706303 0.07091182 0.005049669
-0.020714499 -0.019132005 -0.088659614 -0.07810269 0.036966782 -0.07379071 -0.075811304 -0.099108264
-0.05516132 0.10170244 -0.0071812817 -0.14019378 0.09521538 0.016916534 0.1302088 0.060044497
0.13362631 -0.030946773 0.014369682 0.040107142 0.0028457083 -0.11006524 -0.08729695 0.024491578
-0.10669902 0.13311057 0.0415647 0.04452809 0.006918467 0.006850699 0.09344374 -0.060654595
0.105843574 -0.036533207 -0.034843244 0.13888532 -0.06322085 -0.0038926955 0.07668737 -0.08152134
0.13064854 -0.07372862 0.04746323 0.089486405 -0.04310063 0.036489673 0.10109816 -0.062213644
-0.05279483 0.028685002 -0.13486739 0.056706864 -0.11345958 -0.04724238 -0.062702045 0.12079632
0.12747954 -0.04936579 0.13834403 0.08316282 0.108170174 0.014015932 -0.14930803 0.15928724
-0.11035595 0.06440578 -0.13280082 -0.008887666 -0.006247008 -0.014545591 0.046245325 -0.10130091
0.048856407 -0.10816143 0.007304518 0.06618322 0.060304258 0.053622246 -0.036616728 -0.030207142
0.09958903 0.12250221 -0.017871702 0.0051035434 0.001141706 0.030110173 -0.05211789 0.032800447
0.036003362 -0.109885804 -0.05739198 -0.10700897 0.0873931 -0.059570674 0.01591526 0.09342594
-0.07528258 -0.10475788 0.098392375 -0.12902011 0.022235608 0.063432254 0.10019496 -0.085353985

encoder.bias_ih_l1 f4 [200]
00000000: a988 003e c246 943c 2769 a6bd 7ff6 bbbd
00000010: 0b90 a0bd 923e f43d 6f64 88bc 0f09 13be
00000020: 7dd0 083e 8460 9cbc ad1c 5b3c c26b 973d
00000030: c9bf 833d 407a 1f3e 8a4a a6bd 9077 bb3d
00000040: 58ee a63d 1abc 0c3d 97ce 4cbd 279a 2abc
00000050: d377 02bd 8fd8 cebd 760d 59bd 09dd 933d
00000060: ed6c 26bd 546e 9bbd 42ea cdbd e7e0 06be
00000070: c33b ffbd d02b a2bc c894 71bd 29a6 a7bd
00000080: df4f edbd 1c16 bf3d beff 2d3c 9425 19be
00000090: cfc4 e03d b703 c6bd 88d9 22be 95e0 6bbd
000000a0: 9c06 1a3b c17f f0bd 09aa 6bbd 180d 63bd
000000b0: 149b 1f3c 2842 b33d 7c7e 453d 5a1a f73d
000000c0: 86f8 b8bd 345a 9e3d 203a 613c a87e fabd
000000d0: dc38 62bd 107e eebd 17c1 0f3c 6a57 d9bd
000000e0: 39bf 1dbd 774c 02be 913c b33d a999 7dbc
000000f0: f5b1 653c 534b ad3d 451b 25be ce98 0d3e
00000100: 676f 64bd 7307 a03d 65ca c2bd 5693 833d
00000110: 74fa 73bc eb0d ce3d bfaa ccbd c456 a53c
00000120: 4d3f 6fbd 2cae 1cbe d6fb 96bd 22b4 99bd
00000130: 7fc0 eebc 9435 a5bd a3a9 05be 841a bdbd
00000140: 4fca d53b 73da 45bd a15b a83c da4d 20be
00000150: 9efc d93d 7ca8 f5bc 08f1 e3bd cbe7 193e
00000160: 587f 79bd c321 72bd e817 89bc 5bb4 bebb
00000170: b16a 9abb 6826 b9bd 805a da3d 10cb 423d
00000180: bc7b 1bbe cc97 823d ee1f 153e 8817 74bd
00000190: 19cb dc3d 1c24 b93c a4df 823d dace 033d
000001a0: c4f1 10be cce8 49bd be7d f5bd c57c fe3c
000001b0: 379a b93d 2551 0c3e 6a15 12be bfe2 053c
000001c0: 11a2 b4bd 473c 9f3c 7736 423d 8fd0 a7bd
000001d0: 91c9 e53d 540a 163e 2c10 bf3d 6415 893d
000001e0: db77 503d 9327 d83c 5ea1 e8bd 0375 94bd
000001f0: 84e8 c1bd b5a1 72bc acaf 05be ff97 17bd
00000200: 96a1 373d 51bd 49bd 82af e13d c0a1 a03d
00000210: 7609 243e 237f 35bd 9845 12be ef52 123c
00000220: 79d7 9cbd bbd3 fb3a 51e7 06bd 5f40 813d
00000230: d5b4 b6bd 76c3 c73d 6b5e e13c 0278 35bd
00000240: 47c9 c03d 3744 b53c 0af8 013e 534f 103d
00000250: bde0 63bb d6cd 953c 2f2e b23c c7b0 eebd
00000260: 7b5c 8abd a0ae b73d e153 eabd 1a9b 853d
00000270: fabd 03be 533b ca3d 9e20 2dbd fe82 3237
00000280: fcc4 89bc d963 b33d 73bb d9bd 3852 b8bb
00000290: 0b47 9a3d 4511 9e3c a768 b6bd 6521 a43d
000002a0: efa3 e73c 69f5 483c ce62 b83d d27a 5fbd
000002b0: a132 033e 695c 1d3d 4c5c 06be 31f0 a2bd
000002c0: d51c 06be 7415 10be 5896 d5bd c7d5 39bd
000002d0: 95be 8d3d bdfe 05bd 435f 9fbc 270b 333d
000002e0: ed51 bd3d 649b bc3b b6ae c2bd 943d f0bd
000002f0: c5b9 94bd 4787 f3bd 8524 453b 5036 de3d
00000300: 8d85 bebd 04f1 83bd bc33 29bd c888 463c
00000310: 2104 83bc 644d d13d 5a09 98bc a18b 103d
0.12552132 0.018100146 -0.08125525 -0.09177875 -0.07839974 0.11925997 -0.016649453 -0.14358924
0.13360782 -0.019088991 0.013373536 0.073936 0.064330645 0.15573978 -0.08119686 0.09153664
0.08150929 0.034359075 -0.050001707 -0.010412729 -0.031852555 -0.10099899 -0.052991353 0.072198935
-0.040631223 -0.07589403 -0.10054447 -0.13171731 -0.124625705 -0.019796282 -0.05897978 -0.081859894
-0.115875 0.09330389 0.010620056 -0.14955741 0.10975038 -0.09668677 -0.15903294 -0.057587225
0.0023502475 -0.11743117 -0.057535205 -0.05543241 0.009741563 0.08752853 0.048216328 0.12065573
-0.09031777 0.07732049 0.013746768 -0.12231189 -0.055230007 -0.11645138 0.008774064 -0.10612376
-0.038512442 -0.12724482 0.087517865 -0.01547853 0.014019479 0.084616326 -0.16123684 0.13827822
-0.055770304 0.07813921 -0.0951126 0.064245865 -0.014891256 0.100612484 -0.09993505 0.020182975
-0.058409978 -0.15300816 -0.07372253 -0.07505061 -0.029144524 -0.0806686 -0.13052993 -0.09233573
0.006524361 -0.048304033 0.020551505 -0.15654698 0.10643886 -0.029987566 -0.111299574 0.15029828
-0.06091246 -0.05911423 -0.016735032 -0.00581984 -0.0047124256 -0.090405285 0.10661793 0.047556937
-0.1518392 0.06376609 0.14562961 -0.059592754 0.10780925 0.022600226 0.06390312 0.03217969
-0.14154726 -0.049294278 -0.11986874 0.031065354 0.09062617 0.13702829 -0.14265981 0.008171736
-0.08819974 0.019437922 0.047415223 -0.08194076 0.11220086 0.14652377 0.093292564 0.06693533
0.050895553 0.026386058 -0.11358903 -0.07248881 -0.09468177 -0.014809062 -0.13055295 -0.03701019
0.044831835 -0.04925281 0.110198036 0.07843351 0.16019234 -0.0443107 -0.1428436 0.008930906
-0.07658286 0.0019212881 -0.032935444 0.06311106 -0.0892121 0.09754078 0.027510842 -0.0443039
0.094133906 0.022127254 0.12692276 0.0352319 -0.0034771406 0.018286627 0.021750538 -0.11654811
-0.067559205 0.08968854 -0.1144178 0.06523724 -0.12865439 0.098745964 -0.042267434 1.0640126e-05
-0.016817562 0.08759279 -0.10631456 -0.0056250356 0.075330816 0.019295344 -0.089066796 0.08014182
0.028276412 0.012265542 0.090032205 -0.05456049 0.12812282 0.038418207 -0.13121146 -0.07955969
-0.13096936 -0.14070684 -0.104290664 -0.04536989 0.06921116 -0.03271364 -0.019454604 0.043711808
0.09244142 0.0057558287 -0.0950598 -0.11730495 -0.07261995 -0.118910365 0.0030081582 0.10850203
-0.093028165 -0.064424545 -0.041309103 0.012117572 -0.01599318 0.10219839 -0.018559147 0.03528941

encoder.bias_hh_l1 f4 [200]
00000000: 2fbb d63d 5123 043e a3b6 c83d c353 063d
00000010: bda4 dc3d 725f b9bd 84db fbbd 4831 cf3c
00000020: 4ec5 cf3d 5b24 1c3e 22e2 02bd 1d9a 88ba
00000030: 766d f2bd ce17 20bc fa10 a63d 14fd 203e
00000040: 154b 90bd ba7f 993d 2161 9cbd e4fc b8bd
00000050: 6da3 8fbc 9e8b 74bc 3ccd 4b3d e995 aebd
00000060: d994 9e3d 4ba2 9c3c d826 bebd 237d fa3d
00000070: e1d8 c1bd 5fbb 203c 5ccf ebbd 96e8 053e
00000080: 6551 393d 88cc e9bb 2fb9 07bc 2d37 99bd
00000090: 7d7c ab3d 5123 ae3d db0e 1dbd fd3a de3d
000000a0: 67ec 6a3c 3ee5 3a3d 7a41 c7bd adbf 00be
000000b0: b6f2 03be 2dec d5bd d0af 05be e29b cdbd
000000c0: 4f43 6f3d 93e2 a4bd e818 9e3d 32bf 9c3d
000000d0: 120a e53d a71d 8b3d d98b b53c b20d dcbd
000000e0: e463 6fbd e4f2 28be e4d6 1c3d be02 9c3d
000000f0: 944f cf3d 4e53 053d 8029 24be b708 b63c
00000100: e335 143e 2ba7 d73d 580a 1b3d 456a bdbd
00000110: 0235 26bc 2823 083d a591 da3d ec02 d53d
00000120: fbcf 413d 99d6 0abd cd8f e0bd bdab a93d
00000130: 2fe9 84bd ff8c c63d 4493 6fbd f9c7 463c
00000140: 909e 773d 3d43 073e da5f 4dbd bb54 1a3d
00000150: b0e8 9e3d 62a8 abbd b27f 8e3d 7f5a 5e3d
00000160: e4b1 bc3c 1ec7 453c 5edc 2abd a32e eb3d
00000170: 7ce5 a43d 0cf1 febb 31e1 b33c fb71 46bb
00000180: dda5 dc3d a976 f7bb ff33 bcbd 7547 4cbc
00000190: 5559 ef3d 5a06 f43c 8a6a 1d3e b6ef 0e3e
000001a0: fa91 02be d307 08be 1d55 863d 00ef 803c
000001b0: 399c c63d 807b f03d a267 7b3d 9275 f43d
000001c0: 9a3e 333c fe7b 6bbd b898 043e f3d2 c53c
000001d0: 49e5 103e eb0e d9bc e641 38bd d808 6cbd
000001e0: 16a5 67bd b7a3 c5bd dd48 0fbe 2d56 debc
000001f0: f3f2 78bd f93b 19be 80d3 603d c152 e8bc
00000200: 3e1f 453d 7ee6 23be 9402 8c3d 11f4 82bd
00000210: 3914 2dbd 769f bdbd 9671 bfbc cd95 20bd
00000220: a05c 913d 3f81 8d3c b3ab 013d d8fe 163e
00000230: ee65 97bb 76d6 9bbd f608 6dbd f2aa 05be
00000240: 3c38 373c 02fb c73c 92e3 c6bd 070a bfbd
00000250: 25bb 18be 1f68 1c3e 47d3 3fbd 48d3 313a
00000260: 539a 11bd b470 c93d 0da3 ce3d 4eb7 24bc
00000270: 7ac2 e43c f54d e63b 9152 103c a5e4 f4bd
00000280: 0a90 f53d ff9c 353c eaa6 dcbd 79f9 1c3e
00000290: b799 a03d db22 3bbd 35c9 62bd e135 d6bd
000002a0: c0ac c7bd 871a 85bd ea9c 113e f5a2 37bd
000002b0: e695 753c af81 41bd c25d 1ebe c807 46bc
000002c0: d49a e4bc 78b8 5fbd 07e2 e23d 74e0 213e
000002d0: 47c6 5e3d 1e37 283c 4910 d93d 060e efbd
000002e0: 7cfe 3d3b 7f98 f63d c2f8 dcbd 3cb4 bebd
000002f0: 5410 9fbd c3c0 0d3e 49dd 12be b3ca 5ebd
00000300: 3892 c53c 80f5 f03d 3d53 8ebd b1f5 01be
00000310: bdd9 b33d aa2b 933c 90ab bebd 4a10 103e
0.10484921 0.12904097 0.0980046 0.032794725 0.10773609 -0.09051408 -0.12297729 0.025292054
0.10145055 0.15248244 -0.03195394 -0.0010421906 -0.11837284 -0.0097713005 0.08108707 0.15721542
-0.07045571 0.07495065 -0.07635713 -0.0903261 -0.017533982 -0.014925865 0.049756274 -0.08524687
0.07743234 0.019120356 -0.092847526 0.12230899 -0.094651945 0.009810298 -0.1151416 0.13077006
0.04524364 -0.0071349777 -0.008283897 -0.07481227 0.08373354 0.0850283 -0.038344245 0.10851095
0.014338589 0.04562878 -0.097292855 -0.12573119 -0.12885556 -0.104454376 -0.13055348 -0.10039498
0.0584138 -0.08051028 0.07719594 0.07653655 0.111835614 0.06792765 0.022161411 -0.107448
-0.058444872 -0.16498905 0.038290873 0.076177105 0.101226 0.03255015 -0.16031456 0.022220952
0.14473681 0.10529932 0.03785166 -0.09248785 -0.010144474 0.033236653 0.10672311 0.10400948
0.047317486 -0.033896063 -0.10964928 0.082847096 -0.06489789 0.096948616 -0.058490053 0.012132638
0.06045395 0.13209243 -0.05014024 0.03767846 0.07759225 -0.08381726 0.0695795 0.054285523
0.023034044 0.012071399 -0.041714065 0.114835046 0.08051583 -0.0077802 0.021957966 -0.003028034
0.107738234 -0.007551987 -0.09189605 -0.012468209 0.116869606 0.029788185 0.15372673 0.1395863
-0.12750998 -0.13284235 0.06559203 0.015738964 0.09697766 0.11742306 0.06137813 0.11936487
0.010940218 -0.057491295 0.12948883 0.02414844 0.14149965 -0.026496371 -0.04498472 -0.05762562
-0.056553923 -0.09650367 -0.13992639 -0.027140701 -0.06077857 -0.14964284 0.054889202 -0.028359773
0.048125498 -0.16005895 0.06836429 -0.06394208 -0.042255614 -0.092589304 -0.023369592 -0.03920536
0.07097745 0.017273543 0.031657886 0.14745653 -0.0046203053 -0.076092646 -0.057869874 -0.13053492
0.011182841 0.024411682 -0.09711374 -0.093280844 -0.1491514 0.15274094 -0.04683235 0.00067834975
-0.035547566 0.098359495 0.10089693 -0.010053469 0.027924765 0.007028336 0.008808748 -0.11957673
0.11990364 0.011084794 -0.10774024 0.15329541 0.07841819 -0.045687538 -0.055367667 -0.10459495
-0.09749746 -0.064992 0.14220014 -0.044833142 0.014989352 -0.047242817 -0.15465453 -0.012086816
-0.027905859 -0.054619282 0.110782675 0.15808278 0.05438831 0.010267047 0.10598809 -0.11672597
0.0028990796 0.12040805 -0.10789634 -0.09311721 -0.07766786 0.13843064 -0.14342226 -0.054392528
0.024117574 0.117655754 -0.0694947 -0.1269138 0.08781765 0.017965157 -0.09310067 0.14068714

decoder.weight f4 [1, 50]
00000000: 5885 ab3d 0c52 2c3d 5d37 113e b036 553d
00000010: f32d cdba a49c b5bd 3a5e dcbc 8919 5a3b
00000020: c264 0f3e 38d7 ff3d 8843 c1bd cc16 003e
00000030: 7af5 e0bb b421 f0bd 130f 583d dcea 1abe
00000040: 9f12 033e b511 f63d fbed 733d 8c66 b4bd
00000050: b027 233e 2f78 cf3d 564f efbd 63c8 c63d
00000060: 4c42 0f3d fad1 cfbd 472f 42bd 95f0 05be
00000070: 8829 72bc e04a 0dbe 864b d83c bd32 313d
00000080: a601 0f3d 2309 f13c 3ca4 b4bd 4e3a c53c
00000090: be1a 213e 2e4d e63d 0c47 c23d 51fc f3bc
000000a0: fcb2 aebd 4ba7 1b3e 4c08 24bc df9e 89bd
000000b0: f981 a7bd 2556 aabc 7128 ad3c 6cc5 2fbd
000000c0: 6ce8 14be a058 083e
0.08375043 0.042070433 0.14181276 0.052054107 -0.0015653953 -0.088677675 -0.0269004 0.003327938
0.1400328 0.124922216 -0.09436709 0.12508696 -0.0068652006 -0.11725178 0.05274875 -0.15128654
0.12800072 0.12015096 0.059553128 -0.08808622 0.15933108 0.10130345 -0.11685054 0.097061895
0.034975335 -0.10147472 -0.04740837 -0.13080056 -0.01478041 -0.13798094 0.0264032 0.04326128
0.03491368 0.029423302 -0.08820388 0.024075653 0.15732858 0.112451896 0.09486207 -0.0297834
-0.08530232 0.15200536 -0.010011744 -0.067197554 -0.08179087 -0.02079303 0.021137448 -0.042912886
-0.14541787 0.13315058
